…
WARNING:tensorflow:From main.py:89: sample_from_datasets_v2 (from tensorflow.python.data.experimental.ops.interleave_ops) is deprecated and will be removed in a future version.
Instructions for updating:
Use `tf.data.Dataset.sample_from_datasets(...)`.
Model: "model"
_________________________________________________________________
 Layer (type)                Output Shape              Param #   
=================================================================
 input_2 (InputLayer)        [(None, 150, 150, 3)]     0         
                                                                 
 sequential (Sequential)     (None, 100, 100, 3)       0         
                                                                 
 resizing (Resizing)         (None, 150, 150, 3)       0         
                                                                 
 rescaling (Rescaling)       (None, 150, 150, 3)       0         
                                                                 
 xception (Functional)       (None, 5, 5, 2048)        20861480  
                                                                 
 global_average_pooling2d (G  (None, 2048)             0         
 lobalAveragePooling2D)                                          
                                                                 
 dropout (Dropout)           (None, 2048)              0         
                                                                 
 dense (Dense)               (None, 2048)              4196352   
                                                                 
 dropout_1 (Dropout)         (None, 2048)              0         
                                                                 
 dense_1 (Dense)             (None, 2048)              4196352   
                                                                 
 dropout_2 (Dropout)         (None, 2048)              0         
                                                                 
 dense_2 (Dense)             (None, 2048)              4196352   
                                                                 
 dense_3 (Dense)             (None, 1)                 2049      
                                                                 
=================================================================
Total params: 33,452,585
Trainable params: 12,591,105
Non-trainable params: 20,861,480
_________________________________________________________________
Epoch 1/20
178/178 [==============================] - 19s 85ms/step - loss: 0.6050 - binary_accuracy: 0.7051
…
